…
I1219 01:47:06.592991  9948 net.cpp:332] The NetState phase (0) differed from the phase (1) specified by a rule in layer mnist
I1219 01:47:06.592991  9948 net.cpp:332] The NetState phase (0) differed from the phase (1) specified by a rule in layer accuracy
I1219 01:47:06.593991  9948 net.cpp:58] Initializing net from parameters: 
name: "LeNet"
state {
  phase: TRAIN
  level: 0
  stage: ""
}
layer {
  name: "mnist"
  type: "Data"
  top: "data"
  top: "label"
  include {
    phase: TRAIN
  }
  transform_param {
    scale: 0.00390625
  }
  data_param {
    source: "examples/mnist/mnist_train_lmdb"
    batch_size: 64
    backend: LMDB
  }
}
layer {
  name: "conv1"
  type: "Convolution"
  bottom: "data"
  top: "conv1"
  param {
    lr_mult: 1
  }
  param {
    lr_mult: 2
  }
  convolution_param {
    num_output: 20
    kernel_size: 5
    stride: 1
    weight_filler {
      type: "xavier"
    }
    bias_filler {
      type: "constant"
    }
  }
}
layer {
  name: "pool1"
  type: "Pooling"
  bottom: "conv1"
  top: "pool1"
  pooling_param {
    pool: MAX
    kernel_size: 2
    stride: 2
  }
}
layer {
  name: "conv2"
  type: "Convolution"
  bottom: "pool1"
  top: "conv2"
  param {
    lr_mult: 1
  }
  param {
    lr_mult: 2
  }
  convolution_param {
    num_output: 50
    kernel_size: 5
    stride: 1
    weight_filler {
      type: "xavier"
    }
    bias_filler {
      type: "constant"
    }
  }
}
layer {
  name: "pool2"
  type: "Pooling"
  bottom: "conv2"
  top: "pool2"
  pooling_param {
    pool: MAX
    kernel_size: 2
    stride: 2
  }
}
layer {
  name: "ip1"
  type: "InnerProduct"
  bottom: "pool2"
  top: "ip1"
  param {
    lr_mult: 1
  }
  param {
    lr_mult: 2
  }
  inner_product_param {
    num_output: 500
    weight_filler {
      type: "xavier"
    }
    bias_filler {
      type: "constant"
    }
  }
}
layer {
  name: "relu1"
  type: "ReLU"
  bottom: "ip1"
  top: "ip1"
}
layer {
  name: "ip2"
  type: "InnerProduct"
  bottom: "ip1"
  top: "ip2"
  param {
    lr_mult: 1
  }
  param {
    lr_mult: 2
  }
  inner_product_param {
    num_output: 10
    weight_filler {
      type: "xavier"
    }
    bias_filler {
      type: "constant"
    }
  }
}
layer {
  name: "loss"
  type: "SoftmaxWithLoss"
  bottom: "ip2"
  bottom: "label"
  top: "loss"
}
I1219 01:47:06.593991  9948 layer_factory.hpp:77] Creating layer mnist
I1219 01:47:06.594990  9948 common.cpp:36] System entropy source not available, using fallback algorithm to generate seed instead.
I1219 01:47:06.594990  9948 net.cpp:100] Creating Layer mnist
I1219 01:47:06.594990  9948 net.cpp:418] mnist -> data
I1219 01:47:06.594990  9948 net.cpp:418] mnist -> label
I1219 01:47:06.594990  7516 db_lmdb.cpp:40] Opened lmdb examples/mnist/mnist_train_lmdb
I1219 01:47:06.595989  9948 data_layer.cpp:41] output data size: 64,1,28,28
I1219 01:47:06.595989  9948 net.cpp:150] Setting up mnist
I1219 01:47:06.595989  9948 net.cpp:157] Top shape: 64 1 28 28 (50176)
I1219 01:47:06.595989  9948 net.cpp:157] Top shape: 64 (64)
I1219 01:47:06.595989  9948 net.cpp:165] Memory required for data: 200960
I1219 01:47:06.595989  9948 layer_factory.hpp:77] Creating layer conv1
I1219 01:47:06.595989  9948 net.cpp:100] Creating Layer conv1
I1219 01:47:06.595989  9948 net.cpp:444] conv1 <- data
I1219 01:47:06.595989  9948 net.cpp:418] conv1 -> conv1
I1219 01:47:06.596988  9948 net.cpp:150] Setting up conv1
I1219 01:47:06.596988  9948 net.cpp:157] Top shape: 64 20 24 24 (737280)
I1219 01:47:06.596988  9948 net.cpp:165] Memory required for data: 3150080
I1219 01:47:06.601986  9948 layer_factory.hpp:77] Creating layer pool1
I1219 01:47:06.603986  9948 net.cpp:100] Creating Layer pool1
I1219 01:47:06.603986  9948 net.cpp:444] pool1 <- conv1
I1219 01:47:06.603986  9948 net.cpp:418] pool1 -> pool1
I1219 01:47:06.603986  9948 net.cpp:150] Setting up pool1
I1219 01:47:06.603986  9948 net.cpp:157] Top shape: 64 20 12 12 (184320)
I1219 01:47:06.603986  9948 net.cpp:165] Memory required for data: 3887360
I1219 01:47:06.604988  9948 layer_factory.hpp:77] Creating layer conv2
I1219 01:47:06.604988  9948 net.cpp:100] Creating Layer conv2
I1219 01:47:06.604988  9948 net.cpp:444] conv2 <- pool1
I1219 01:47:06.604988  9948 net.cpp:418] conv2 -> conv2
I1219 01:47:06.608981  9948 net.cpp:150] Setting up conv2
I1219 01:47:06.608981  9948 net.cpp:157] Top shape: 64 50 8 8 (204800)
I1219 01:47:06.608981  9948 net.cpp:165] Memory required for data: 4706560
I1219 01:47:06.608981  9948 layer_factory.hpp:77] Creating layer pool2
I1219 01:47:06.608981  9948 net.cpp:100] Creating Layer pool2
I1219 01:47:06.608981  9948 net.cpp:444] pool2 <- conv2
I1219 01:47:06.608981  9948 net.cpp:418] pool2 -> pool2
I1219 01:47:06.608981  9948 net.cpp:150] Setting up pool2
I1219 01:47:06.608981  9948 net.cpp:157] Top shape: 64 50 4 4 (51200)
I1219 01:47:06.608981  9948 net.cpp:165] Memory required for data: 4911360
I1219 01:47:06.608981  9948 layer_factory.hpp:77] Creating layer ip1
I1219 01:47:06.608981  9948 net.cpp:100] Creating Layer ip1
I1219 01:47:06.608981  9948 net.cpp:444] ip1 <- pool2
I1219 01:47:06.608981  9948 net.cpp:418] ip1 -> ip1
I1219 01:47:06.632968  9948 net.cpp:150] Setting up ip1
I1219 01:47:06.633970  9948 net.cpp:157] Top shape: 64 500 (32000)
I1219 01:47:06.633970  9948 net.cpp:165] Memory required for data: 5039360
I1219 01:47:06.633970  9948 layer_factory.hpp:77] Creating layer relu1
I1219 01:47:06.633970  9948 net.cpp:100] Creating Layer relu1
I1219 01:47:06.633970  9948 net.cpp:444] relu1 <- ip1
I1219 01:47:06.633970  9948 net.cpp:405] relu1 -> ip1 (in-place)
I1219 01:47:06.633970  9948 net.cpp:150] Setting up relu1
I1219 01:47:06.634979  9948 net.cpp:157] Top shape: 64 500 (32000)
I1219 01:47:06.634979  9948 net.cpp:165] Memory required for data: 5167360
I1219 01:47:06.634979  9948 layer_factory.hpp:77] Creating layer ip2
I1219 01:47:06.634979  9948 net.cpp:100] Creating Layer ip2
I1219 01:47:06.634979  9948 net.cpp:444] ip2 <- ip1
I1219 01:47:06.634979  9948 net.cpp:418] ip2 -> ip2
I1219 01:47:06.634979  9948 net.cpp:150] Setting up ip2
I1219 01:47:06.634979  9948 net.cpp:157] Top shape: 64 10 (640)
I1219 01:47:06.634979  9948 net.cpp:165] Memory required for data: 5169920
I1219 01:47:06.634979  9948 layer_factory.hpp:77] Creating layer loss
I1219 01:47:06.634979  9948 net.cpp:100] Creating Layer loss
I1219 01:47:06.634979  9948 net.cpp:444] loss <- ip2
I1219 01:47:06.634979  9948 net.cpp:444] loss <- label
I1219 01:47:06.634979  9948 net.cpp:418] loss -> loss
I1219 01:47:06.634979  9948 layer_factory.hpp:77] Creating layer loss
…
I1219 01:47:06.635967  9948 solver.cpp:181] Creating test net (#0) specified by net file: examples/mnist/lenet_train_test.prototxt
I1219 01:47:06.635967  9948 net.cpp:332] The NetState phase (1) differed from the phase (0) specified by a rule in layer mnist
I1219 01:47:06.636973  9948 net.cpp:58] Initializing net from parameters: 
name: "LeNet"
state {
  phase: TEST
}
layer {
  name: "mnist"
  type: "Data"
  top: "data"
  top: "label"
  include {
    phase: TEST
  }
  transform_param {
    scale: 0.00390625
  }
  data_param {
    source: "examples/mnist/mnist_test_lmdb"
    batch_size: 100
    backend: LMDB
  }
}
layer {
  name: "conv1"
  type: "Convolution"
  bottom: "data"
  top: "conv1"
  param {
    lr_mult: 1
  }
  param {
    lr_mult: 2
  }
  convolution_param {
    num_output: 20
    kernel_size: 5
    stride: 1
    weight_filler {
      type: "xavier"
    }
    bias_filler {
      type: "constant"
    }
  }
}
layer {
  name: "pool1"
  type: "Pooling"
  bottom: "conv1"
  top: "pool1"
  pooling_param {
    pool: MAX
    kernel_size: 2
    stride: 2
  }
}
layer {
  name: "conv2"
  type: "Convolution"
  bottom: "pool1"
  top: "conv2"
  param {
    lr_mult: 1
  }
  param {
    lr_mult: 2
  }
  convolution_param {
    num_output: 50
    kernel_size: 5
    stride: 1
    weight_filler {
      type: "xavier"
    }
    bias_filler {
      type: "constant"
    }
  }
}
layer {
  name: "pool2"
  type: "Pooling"
  bottom: "conv2"
  top: "pool2"
  pooling_param {
    pool: MAX
    kernel_size: 2
    stride: 2
  }
}
layer {
  name: "ip1"
  type: "InnerProduct"
  bottom: "pool2"
  top: "ip1"
  param {
    lr_mult: 1
  }
  param {
    lr_mult: 2
  }
  inner_product_param {
    num_output: 500
    weight_filler {
      type: "xavier"
    }
    bias_filler {
      type: "constant"
    }
  }
}
layer {
  name: "relu1"
  type: "ReLU"
  bottom: "ip1"
  top: "ip1"
}
layer {
  name: "ip2"
  type: "InnerProduct"
  bottom: "ip1"
  top: "ip2"
  param {
    lr_mult: 1
  }
  param {
    lr_mult: 2
  }
  inner_product_param {
    num_output: 10
    weight_filler {
      type: "xavier"
    }
    bias_filler {
      type: "constant"
    }
  }
}
layer {
  name: "accuracy"
  type: "Accuracy"
  bottom: "ip2"
  bottom: "label"
  top: "accuracy"
  include {
    phase: TEST
  }
}
layer {
  name: "loss"
  type: "SoftmaxWithLoss"
  bottom: "ip2"
  bottom: "label"
  top: "loss"
}
I1219 01:47:06.636973  9948 layer_factory.hpp:77] Creating layer mnist
I1219 01:47:06.636973  9948 net.cpp:100] Creating Layer mnist
I1219 01:47:06.636973  9948 net.cpp:418] mnist -> data
I1219 01:47:06.636973  9948 net.cpp:418] mnist -> label
I1219 01:47:06.644971  7708 db_lmdb.cpp:40] Opened lmdb examples/mnist/mnist_test_lmdb
I1219 01:47:06.644971  9948 data_layer.cpp:41] output data size: 100,1,28,28
I1219 01:47:06.645961  9948 net.cpp:150] Setting up mnist
I1219 01:47:06.645961  9948 net.cpp:157] Top shape: 100 1 28 28 (78400)
I1219 01:47:06.645961  9948 net.cpp:157] Top shape: 100 (100)
I1219 01:47:06.645961  9948 net.cpp:165] Memory required for data: 314000
I1219 01:47:06.645961  9948 layer_factory.hpp:77] Creating layer label_mnist_1_split
I1219 01:47:06.645961  9948 net.cpp:100] Creating Layer label_mnist_1_split
I1219 01:47:06.645961  9948 net.cpp:444] label_mnist_1_split <- label
I1219 01:47:06.645961  9948 net.cpp:418] label_mnist_1_split -> label_mnist_1_split_0
I1219 01:47:06.645961  9948 net.cpp:418] label_mnist_1_split -> label_mnist_1_split_1
I1219 01:47:06.645961  9948 net.cpp:150] Setting up label_mnist_1_split
I1219 01:47:06.645961  9948 net.cpp:157] Top shape: 100 (100)
I1219 01:47:06.645961  9948 net.cpp:157] Top shape: 100 (100)
I1219 01:47:06.645961  9948 net.cpp:165] Memory required for data: 314800
I1219 01:47:06.645961  9948 layer_factory.hpp:77] Creating layer conv1
I1219 01:47:06.645961  9948 net.cpp:100] Creating Layer conv1
I1219 01:47:06.645961  9948 net.cpp:444] conv1 <- data
I1219 01:47:06.645961  9948 net.cpp:418] conv1 -> conv1
I1219 01:47:06.645961  9948 net.cpp:150] Setting up conv1
I1219 01:47:06.645961  9948 net.cpp:157] Top shape: 100 20 24 24 (1152000)
I1219 01:47:06.645961  9948 net.cpp:165] Memory required for data: 4922800
I1219 01:47:06.646960  9948 layer_factory.hpp:77] Creating layer pool1
I1219 01:47:06.646960  9948 net.cpp:100] Creating Layer pool1
I1219 01:47:06.647960  9948 net.cpp:444] pool1 <- conv1
I1219 01:47:06.647960  9948 net.cpp:418] pool1 -> pool1
I1219 01:47:06.647960  9948 net.cpp:150] Setting up pool1
I1219 01:47:06.647960  9948 net.cpp:157] Top shape: 100 20 12 12 (288000)
I1219 01:47:06.647960  9948 net.cpp:165] Memory required for data: 6074800
I1219 01:47:06.647960  9948 layer_factory.hpp:77] Creating layer conv2
I1219 01:47:06.647960  9948 net.cpp:100] Creating Layer conv2
I1219 01:47:06.647960  9948 net.cpp:444] conv2 <- pool1
I1219 01:47:06.647960  9948 net.cpp:418] conv2 -> conv2
I1219 01:47:06.650957  9948 net.cpp:150] Setting up conv2
I1219 01:47:06.650957  9948 net.cpp:157] Top shape: 100 50 8 8 (320000)
I1219 01:47:06.650957  9948 net.cpp:165] Memory required for data: 7354800
I1219 01:47:06.650957  9948 layer_factory.hpp:77] Creating layer pool2
I1219 01:47:06.650957  9948 net.cpp:100] Creating Layer pool2
I1219 01:47:06.650957  9948 net.cpp:444] pool2 <- conv2
I1219 01:47:06.650957  9948 net.cpp:418] pool2 -> pool2
I1219 01:47:06.650957  9948 net.cpp:150] Setting up pool2
I1219 01:47:06.650957  9948 net.cpp:157] Top shape: 100 50 4 4 (80000)
I1219 01:47:06.650957  9948 net.cpp:165] Memory required for data: 7674800
I1219 01:47:06.650957  9948 layer_factory.hpp:77] Creating layer ip1
I1219 01:47:06.650957  9948 net.cpp:100] Creating Layer ip1
I1219 01:47:06.650957  9948 net.cpp:444] ip1 <- pool2
I1219 01:47:06.650957  9948 net.cpp:418] ip1 -> ip1
I1219 01:47:06.674944  9948 net.cpp:150] Setting up ip1
I1219 01:47:06.674944  9948 net.cpp:157] Top shape: 100 500 (50000)
I1219 01:47:06.674944  9948 net.cpp:165] Memory required for data: 7874800
I1219 01:47:06.674944  9948 layer_factory.hpp:77] Creating layer relu1
I1219 01:47:06.674944  9948 net.cpp:100] Creating Layer relu1
I1219 01:47:06.674944  9948 net.cpp:444] relu1 <- ip1
I1219 01:47:06.674944  9948 net.cpp:405] relu1 -> ip1 (in-place)
I1219 01:47:06.674944  9948 net.cpp:150] Setting up relu1
I1219 01:47:06.674944  9948 net.cpp:157] Top shape: 100 500 (50000)
I1219 01:47:06.674944  9948 net.cpp:165] Memory required for data: 8074800
I1219 01:47:06.674944  9948 layer_factory.hpp:77] Creating layer ip2
I1219 01:47:06.674944  9948 net.cpp:100] Creating Layer ip2
I1219 01:47:06.674944  9948 net.cpp:444] ip2 <- ip1
I1219 01:47:06.674944  9948 net.cpp:418] ip2 -> ip2
I1219 01:47:06.675943  9948 net.cpp:150] Setting up ip2
I1219 01:47:06.675943  9948 net.cpp:157] Top shape: 100 10 (1000)
I1219 01:47:06.675943  9948 net.cpp:165] Memory required for data: 8078800
I1219 01:47:06.675943  9948 layer_factory.hpp:77] Creating layer ip2_ip2_0_split
I1219 01:47:06.675943  9948 net.cpp:100] Creating Layer ip2_ip2_0_split
I1219 01:47:06.675943  9948 net.cpp:444] ip2_ip2_0_split <- ip2
I1219 01:47:06.675943  9948 net.cpp:418] ip2_ip2_0_split -> ip2_ip2_0_split_0
I1219 01:47:06.675943  9948 net.cpp:418] ip2_ip2_0_split -> ip2_ip2_0_split_1
I1219 01:47:06.675943  9948 net.cpp:150] Setting up ip2_ip2_0_split
I1219 01:47:06.675943  9948 net.cpp:157] Top shape: 100 10 (1000)
I1219 01:47:06.675943  9948 net.cpp:157] Top shape: 100 10 (1000)
I1219 01:47:06.675943  9948 net.cpp:165] Memory required for data: 8086800
I1219 01:47:06.675943  9948 layer_factory.hpp:77] Creating layer accuracy
I1219 01:47:06.675943  9948 net.cpp:100] Creating Layer accuracy
I1219 01:47:06.675943  9948 net.cpp:444] accuracy <- ip2_ip2_0_split_0
I1219 01:47:06.675943  9948 net.cpp:444] accuracy <- label_mnist_1_split_0
I1219 01:47:06.675943  9948 net.cpp:418] accuracy -> accuracy
…
